best_model.pth (torch, 449636 bytes, 8 tensors)

gnn_layers.0.bias f4 [64]
00000000: cbc0 d0bc 8971 0c3d 933c 14bd 18a4 a63c
00000010: 2416 1a3d c814 003d a40a 713c 15b2 95bc
00000020: e878 97bb 3c77 e2bc d2e4 8cbc 5722 573b
00000030: a91d 5a3a 58d8 423d 1766 92bb 86d3 073c
00000040: f9a7 51bc 7a1b debc eda0 ff3c 9abd 27bc
00000050: 56f8 1ebd 6251 1b3c d738 a9bc 52e6 083d
00000060: 6004 d8b9 6007 b8bc 4fe2 b2bc f11a c23c
00000070: c270 45bc 9962 493a 7aec 81bc e0b4 b33c
00000080: f44d 3cbc f6cd 03bc c33e 81bb 9501 9a39
00000090: 2bea 27bc b0c3 53bc 0fc9 1abc a719 78bd
000000a0: d883 253c f607 053d 90de 193b f1ca 00bc
000000b0: c1b9 a73c 06fd ae3c 0d79 723b 8458 973c
000000c0: 130f d1bc d0c9 f9bb 8bc5 053c ac75 02bd
000000d0: ba9a d1bb 4126 2f3c 1190 cc3c 0d02 debc
000000e0: 4e26 1a3b 2169 a5bc eee1 5a3c 6b2a ddbb
000000f0: 7e9b 80bc 04ea 0c3c 587f 623c b814 d03a
-0.025482556 0.034287963 -0.03619058 0.020341918 0.03761877 0.03126982 0.01471201 -0.018273393
-0.0046225674 -0.027644746 -0.017198954 0.0032826865 0.000832046 0.047569603 -0.0044677365 0.008290177
-0.012796395 -0.027112711 0.031204665 -0.010238076 -0.03881105 0.009479852 -0.020656986 0.033422776
-0.0004120199 -0.022464454 -0.021836428 0.023694487 -0.012050809 0.00076822337 -0.015859831 0.021936834
-0.011493195 -0.00804471 -0.0039442494 0.00029374348 -0.010248701 -0.0129250735 -0.00944735 -0.06057134
0.010102235 0.032478295 0.0023478605 -0.007860885 0.020474317 0.021360885 0.0036998421 0.018474825
-0.025519883 -0.007622935 0.008164774 -0.031850502 -0.0063966187 0.010690273 0.02497104 -0.027100587
0.0023521367 -0.020191731 0.01335953 -0.0067494414 -0.015699144 0.008600716 0.013824306 0.0015875315

gnn_layers.0.lin.weight f4 [64, 1433]
00000000: 60b3 cabb 6d19 c03c 92c2 2a3d 6bec da3c
00000010: 36a8 8d3d 584d 683b af66 8d3c ff01 2f3b
00000020: d870 ef3b e699 c3b9 a5bd ca3a 3190 c5ba
00000030: ed07 f5bc 64e6 f33c a295 cd3c f11e 14bb
00000040: 710a 4b3c a6b2 46bc 0134 0ebc 69ef 373d
00000050: 7447 94b6 9b91 af3b d6a9 613b 17c7 89bb
00000060: 6495 d8ba 432d 3c3d f92a 5139 66a8 b8bb
00000070: 6586 953c fee6 923c c1f0 dfbc 361f 0d3b
00000080: e811 c43b 2ff0 5d39 bd87 263c 28e5 44bc
00000090: 13ee 19bc 5812 0fba f71c 0a3d 163d 8bbc
000000a0: 1e4a d23c 4d2a bf3c c949 b3bc 5959 813b
000000b0: da9e efbb 5d1e 21bd 5658 a739 463d 33bd
000000c0: 8c47 873c 49db cd3a fab6 57bb 172f 03be
000000d0: a125 663d 42cf cf3a 07a7 babc 2134 26bc
000000e0: 9d0b 06bb 6ec8 603c 735e 0e3c 98fc c93c
000000f0: 9ea5 15b8 f591 aabd add8 993d cb1f b63c
00000100: 7fca 583b d9c3 4e3b 2cef c5bc b707 2b3b
00000110: 8d89 15ba 0d4f 9d3b e0ce 9c3b 35e8 1139
00000120: 11d5 363c ee81 893b 1ef6 12bc e9a0 7f3c
00000130: 90d8 10bc 6906 cfbd af84 033d ed03 903b
00000140: b598 fd3c 69b5 48bc 2204 5e3c 7ad3 e83b
00000150: ce01 b23b 5ccc e23c bfca a3bc d04f b0ba
00000160: f62d 62bd be3f 7ebc 054c 9bba 0fa0 4ebb
00000170: 32be 99bc 7eea 3b3d a3ea e03c c9f9 a6bb
00000180: 8f48 4dbd d9c2 853d 5e76 3e3c 41db 06be
00000190: 8baa 81bc 124f a53b 7262 a4bd 5e0a 983d
000001a0: 3c63 5dbd 6c40 333b 1c3d 33bc 2310 4b3c
000001b0: eef9 8fbd dc95 0b3c c827 373b 0d4a 493a
000001c0: 8f3a d1bc 9687 213b 42f8 2dbc 54f9 e4bb
000001d0: 375c edbb 735c aeba 8ff8 edbd f825 9c3c
000001e0: 72f1 6a3c 1f1c b43c 0bcf 55bc 2caf 8c3c
000001f0: c090 cb3b 33a7 a3bd 0dfe 64bd 7e91 70bc
00000200: 9ef8 24be 94dd cbbc d9b0 dd3c 203e e3bd
00000210: 2575 763d 164e 8cbc 8f32 fd3b fb67 babb
00000220: 8a80 8a3c 43d7 48b8 9a9c 8cbb 4c32 a23c
00000230: f41d 58bd 9911 2ebc a078 6dbb 865a 9e3c
00000240: a247 e8b9 393b 0337 a5da 773b 795f 7fbc
00000250: da5a d6bb 45f2 4c3d 084b 173c a033 a3bc
00000260: 2e1e 4bbc 6938 52bd eb79 7dbb db18 d1bc
00000270: e58e 8aba fcb7 4f3d 7027 433c 5d9c ee3b
00000280: 6403 2f3d 0f53 2c3a 3c24 27bc abb2 adba
00000290: 001b 88ba 5799 d83a 2643 633c 7f56 e3bb
000002a0: d69b f43d f076 44bb d1ab a33b dad1 5fb9
000002b0: 6832 8cbc e48e a03c 0b72 d5bc 62aa b53b
000002c0: 3b69 353c 6d72 04bc 8ad2 76bb 7a51 163a
000002d0: 57ac 18bc d8ce 2cbb 2584 e03b 40c5 1bbc
000002e0: 4a55 873b ef39 a439 3b93 d93b 5948 ae3d
000002f0: b561 a03b b0d5 033a 1dbc b73a 3cf1 c33b
00000300: afa5 a53c 7b93 f7b9 60a9 9e3b a895 5b3c
00000310: a4a9 ca3d 99c3 88bb cebb 3a3b 04ed 3b3b
00000320: aa5c 0cbb 8748 a23b 3ecf 6a3b 1fae 9bbb
00000330: 21c7 32ba 244c 1c3d b91e 9439 48e9 503c
00000340: 07f7 f13c 7666 ba3a 4128 5b3a c647 a5bb
00000350: dbaf a53c 401f 5fbb ed71 34bc 2142 f6bb
00000360: 6f9e 043c a9d3 233d 3ee6 543d bd26 7a3b
00000370: 648e 873b 532a 263a 521b 84ba 4f97 30bb
00000380: 015f 4ebb 0c07 20bc 1753 5bbc fccd 8db9
00000390: 0556 963c be41 4fbc 2264 c2bb 5daf 063d
000003a0: 8f30 23bd e88e 273d ea27 583d cd26 0bbc
000003b0: 968a 20bc a490 d33c 1b26 9abb 2ca1 bdba
000003c0: ae3d 233d ce86 6e3c 6b60 a2bb ddfa 54bb
000003d0: 9bb4 bfbc 775c 65bb 4861 f3b8 18d1 163c
000003e0: 32ca 68bc ca63 543a f653 1aba 0643 c43b
000003f0: 8091 eaba 716c 5fbc e9a1 c2bb e3d9 5fba
-0.006185934 0.023449624 0.041689463 0.026724061 0.06916849 0.003544649 0.017260877 0.002670407
0.007307153 -0.00037307962 0.0015467895 -0.001507288 -0.029911006 0.029772945 0.025095765 -0.002260145
0.012392626 -0.012127554 -0.008679391 0.044906054 -4.419062e-06 0.0053579337 0.0034433505 -0.0042046416
-0.0016524014 0.045941602 0.00019947802 -0.005635309 0.01825256 0.017932411 -0.02733648 0.0021533496
0.00598358 0.00021165678 0.010164198 -0.012017526 -0.00939514 -0.00054577505 0.03371903 -0.016996901
0.025670107 0.0233356 -0.02188577 0.0039474186 -0.0073126378 -0.039335597 0.00031918538 -0.043759607
0.016513608 0.0015705611 -0.003291546 -0.12810932 0.05618823 0.0015854614 -0.022784723 -0.010144264
-0.00204537 0.013719661 0.008689511 0.024656579 -3.567861e-05 -0.0832862 0.07512031 0.022231957
0.0033079681 0.003154984 -0.024161898 0.0026097128 -0.00057043956 0.0048006834 0.0047854036 0.00013914781
0.011159197 0.004196397 -0.008969812 0.015602329 -0.008840695 -0.101086445 0.03210896 0.0043949992
0.030956605 -0.012250283 0.01355079 0.007105288 0.005432344 0.027685337 -0.019994138 -0.001345152
-0.055219613 -0.015518127 -0.0011848217 -0.0031528508 -0.01876745 0.045877926 0.027455634 -0.0050956947
-0.050118025 0.06531305 0.011624901 -0.13169576 -0.015828392 0.0050448263 -0.080265895 0.074238524
-0.054049715 0.002735163 -0.010939863 0.012393984 -0.07030092 0.008519616 0.0027947295 0.0007678576
-0.025540618 0.0024647466 -0.010618271 -0.00698773 -0.007243659 -0.0013302698 -0.116196744 0.019061074
0.014339792 0.021986065 -0.013049851 0.017173372 0.006212324 -0.07990875 -0.055906344 -0.014683126
-0.16110465 -0.02488593 0.027061867 -0.11095834 0.06017031 -0.017127078 0.0077269743 -0.005688665
0.016906995 -4.7884194e-05 -0.0042911293 0.019799374 -0.05276294 -0.010624313 -0.0036235228 0.019330274
-0.0004430386 7.821997e-06 0.0037819531 -0.015586727 -0.006541592 0.050035734 0.009234197 -0.019922078
-0.012397332 -0.05132333 -0.0038677405 -0.025524547 -0.001057115 0.05071257 0.011911258 0.0072818235
0.042727843 0.0006573656 -0.01020151 -0.00132521 -0.0010384023 0.0016525191 0.01387099 -0.0069378014
0.11943786 -0.002997812 0.0049948473 -0.00021345113 -0.01711388 0.019599386 -0.026055356 0.005543993
0.011072452 -0.008083922 -0.0037662112 0.0005734187 -0.009318433 -0.0026368406 0.0068516904 -0.009507477
0.0041300403 0.00031323681 0.0066398657 0.08509893 0.00489446 0.00050290953 0.0014017854 0.005979685
0.020220606 -0.00047221393 0.0048419684 0.01340238 0.09895638 -0.0041737077 0.0028493288 0.0028675208
-0.0021417537 0.0049524936 0.0035829092 -0.0047509815 -0.00068198337 0.03815855 0.0002825165 0.012750931
0.029536737 0.001422121 0.00083601853 -0.0050439565 0.020225456 -0.0034045726 -0.01101349 -0.0075152074
0.008094414 0.039996777 0.05197739 0.0038170062 0.0041368473 0.0006338704 -0.0010078943 -0.0026945656
-0.0031489732 -0.009767305 -0.013386509 -0.00027047086 0.018351564 -0.0126499515 -0.005932347 0.032882083
-0.03984123 0.04090777 0.05277244 -0.008493138 -0.009798666 0.025825806 -0.0047042496 -0.0014467589
0.039853744 0.014558507 -0.0049553416 -0.003249816 -0.02340155 -0.003499774 -0.00011605263 0.009205125
-0.014208363 0.0008102028 -0.0005887145 0.005989435 -0.0017896146 -0.013636694 -0.0059397114 -0.00085392426

gnn_layers.1.bias f4 [64]
00000000: cca8 4cbc 0839 fc3d 2a82 8fbd ac0d 10bd
00000010: 7b39 04bd 6d8a c3bc b0bf 993d 2f2f 673c
00000020: cb5b 56bb 718e 8bbc 22ad 0ebd 0877 563d
00000030: 78da 92bd 7e9a 3c3d d469 5e3d 3407 26bd
00000040: 31b9 acbb 3ca0 203d 3c50 a1bc 7f4f 2abd
00000050: e8f6 c4bb b7ae 223d 027b da3c 38e6 8c3b
00000060: fcba b63c f0c3 04bd e3dd d8bc 25e1 8bbd
00000070: f075 92bc 6c84 2bbc 940b de3b e558 e93c
00000080: b5ae 03bc 85cc 9bbc 757b 003c 6a2c d13c
00000090: cd4a 15bd 7f22 303b cf50 c43c d5ac d33c
000000a0: 184d a5bb cc7b edbc 9fe2 583c 88fe 3e3d
000000b0: 96c4 4d3c d6ff e33b 7ac1 32b9 a4e2 653c
000000c0: b2be 1fbd 3456 2cbd f34f f93c 87e3 99bc
000000d0: 7e53 043d 0c15 7f3d 0819 acbb 885f ac3c
000000e0: e98c 8a3b 1823 e7bb 78a7 9c3d 83bd 12bd
000000f0: fa6d 39bd 49c2 e6bc 2e62 7dbd 05c3 87bc
-0.012491416 0.12315565 -0.07007249 -0.03516929 -0.03228138 -0.023869717 0.075072646 0.014110371
-0.0032708521 -0.017035695 -0.03483308 0.05235961 -0.07170576 0.046045773 0.054300144 -0.040534213
-0.0052711 0.03921531 -0.019691579 -0.04157972 -0.006010879 0.039717402 0.026669983 0.004299905
0.022305958 -0.032413423 -0.026472991 -0.06830052 -0.017878503 -0.010468584 0.0067762826 0.028484771
-0.008037259 -0.019018421 0.007841934 0.025533874 -0.03644829 0.002687603 0.023964314 0.025839249
-0.0050445907 -0.028989695 0.013237624 0.04662946 0.012559077 0.0069579883 -0.00017047478 0.014031086
-0.03900022 -0.042074397 0.03043363 -0.018785251 0.032306187 0.06227593 -0.0052520074 0.021041647
0.0042282236 -0.007053744 0.0764913 -0.035825264 -0.045270897 -0.028168814 -0.06186121 -0.016572485

gnn_layers.1.lin.weight f4 [64, 64]
00000000: 6362 c83d d0ed dabd 3a8a 1c3d 84ca 15be
00000010: 0b53 f3bb 4585 603d 6a66 973d e1cf ba3c
00000020: 2e30 1c3e b62b a13d 823e 16bb 7948 35be
00000030: 35e3 f83b 8ba1 053c 4917 38bd 5fe0 2c3d
00000040: 56cc 59bd cbf7 88bd bc1e e03c d17c 1c3e
00000050: e719 c8bd e3c4 e5bb 0100 17be 2802 8cbd
00000060: 2e38 adbc 33a7 cb3d e392 8a3d b913 1dbe
00000070: 0681 943c 6455 2ebe f48a 4ebe bf8d cabd
00000080: e66a 01bc af4c 24be c7b0 943d 7411 fbbc
00000090: 7bfd 42be 1e61 c53b 6c7e 29be 65ee 13be
000000a0: f11e 25be 08e3 b2bd 23e3 81bc fc0b bdbd
000000b0: 8f87 20be acf0 583d 9472 163e 5cf5 4e3d
000000c0: afb5 96bd 2891 6ebe de60 16be 4463 60bd
000000d0: 02ad df3d 48c5 4b3d 0db2 063e 9dc3 00be
000000e0: 36dd 4d3e ddf4 c43d 38b0 293e 5145 263e
000000f0: 46f5 a6bc 4015 3cbd cd32 bcbd 26d3 d23d
00000100: 22d8 efbd 2c5e 303e 5e9b e73d bc4d ac3d
00000110: 0f0b 76bd 0f3e dc3d d482 b9bd 51fc d4bc
00000120: af6f cebd bc1e 1bbe cb0e b1bd 1985 163e
00000130: da12 543d 4c51 2f3c 35a3 de3d a74b 94bb
00000140: 8350 f5bd b70c bf3d 4867 093e 3430 87bd
00000150: 57c2 9c3d d464 2bbd c564 37bd 23a3 683c
00000160: 73ae 2c3e 7bdb 0bbe 517c 2fbe 85a5 283e
00000170: b7b3 0b3e d7eb 603d 2746 393c d3e9 a83d
00000180: 2930 353e d32d d93d c580 49be 5495 273e
00000190: db39 9abd 7b0b a2bc e5ac 89bd f80b bb3d
000001a0: 6063 28be 2f23 19be f5ff 8a3d 6870 bd3d
000001b0: eac2 103d b033 b63d 9a5b b83d a402 eebd
000001c0: ce88 333e a955 b6bd ef53 9b3b 1703 c5bc
000001d0: b1ce be3b da48 423e eeb0 82be d040 f13c
000001e0: 6c34 b4bd fe73 5cbd b1df ef3c 7b49 393d
000001f0: 61df 033c f0f8 163e 5558 d63d 76f0 043e
00000200: c1cd 87bc 5195 f3bb 556d f9bc 1e98 6cbc
00000210: e9c5 1bbe d083 22be babd 343e 7ecc 78bd
00000220: 09ce 343d d90a 95bd 948d 3a3e 7c1e 8b3c
00000230: d068 593c db73 ef3c 28bc f93d e95d de3c
00000240: 7595 27bd bed5 fdbb 1572 413e 770e bfbd
00000250: 26c4 edbd a843 283c 951f 8eb9 c18f dfbb
00000260: 239d a93d 00d9 583c d6e8 af3d 3e49 1fbd
00000270: e2bb b53d ca15 6cbd c323 8abd 15ce 14be
00000280: c26d 123c 222e 1cbd 69c4 3b3e 55b1 86bd
00000290: 928a 0bbd 3d2b f93c 40fd 3c3d 6b23 03be
000002a0: 54c7 f33b cea9 753b b55d 423e c532 10bd
000002b0: 05e4 75bd 72c2 02be 7b6c 7c3c d01c 863d
000002c0: 2f21 21be 48c3 00bd b2f6 f9bd 0e69 55be
000002d0: a3b4 1abd 0546 053e db4c b2bd 3788 77ba
000002e0: d87a 3c3e bd23 bcbd df46 083e 0de4 98bd
000002f0: c19f b5bd 4460 cfbc a214 123d dd32 88bb
00000300: cc41 02bd 19a4 043d 4994 c3bd 88be a33d
00000310: e70e 4c3d 5cd0 bbbd 9326 8bbd 2e0e 95bc
00000320: 6048 843d 2023 233e e17a e1bc 542e ba3d
00000330: c73c c93d dae3 103d 2f6e d1bd 2f20 213a
00000340: 4e78 a0bd 671b 903d 3c0c 14bd 1925 183e
00000350: 1971 e53d 6c03 f7bd 8f0c b43c f0c8 cf3d
00000360: a497 623d f8a7 0dbe a760 b9bd 4630 a13c
00000370: 42ac f9bd f864 93bd 237b 63bd ac4f 09ba
00000380: c311 47bd b931 fb3c f04e 08bd d66e 023c
00000390: f3c7 c23c d038 d6bd d10a 2d3e a712 6fbd
000003a0: 8c88 f3bd 7c59 813d b216 2d3d 4b43 853d
000003b0: fac6 19bd a144 41bc e877 d63d acd5 2e3e
000003c0: f78b 293e de37 56bc c95e 29be 925a 5cbd
000003d0: 1ec9 00bd 909b 7d3d e3e9 d63c d85e f3bb
000003e0: d9bd bb3d f781 b0bd ccf3 743c 8d86 89bd
000003f0: 85ac 18be e126 1abe ceba 453d af80 cc3d
0.09784391 -0.106898904 0.03821776 -0.14628035 -0.007425671 0.054814596 0.07392581 0.022804203
0.15252754 0.07869665 -0.002292544 -0.17703427 0.0075954446 0.008156191 -0.04494408 0.042206164
-0.053173386 -0.06687888 0.027358405 0.15281989 -0.097705655 -0.007011996 -0.14746095 -0.06836349
-0.021144953 0.09944 0.06766298 -0.15339555 0.01812793 -0.17024761 -0.20170194 -0.09890317
-0.007899022 -0.16044877 0.0726028 -0.03064797 -0.19042008 0.00602354 -0.16552132 -0.14446409
-0.16125084 -0.08734709 -0.015855378 -0.092308015 -0.15676711 0.052963898 0.14692146 0.05052696
-0.07358872 -0.2329756 -0.1468539 -0.054782167 0.109216705 0.04974869 0.13153858 -0.1257462
0.20103917 0.096170165 0.16571128 0.1623738 -0.020380627 -0.045918703 -0.09189377 0.102941796
-0.11711146 0.17223424 0.11308931 0.08413264 -0.06006914 0.10754024 -0.090581566 -0.02599922
-0.10079896 -0.15148443 -0.086454 0.1469921 0.05177579 0.010700535 0.10870973 -0.00452562
-0.11978247 0.09328597 0.13418305 -0.06600991 0.07654255 -0.041844204 -0.044773836 0.014199051
0.16863422 -0.13657944 -0.17137267 0.1646939 0.13642775 0.054912414 0.0113082295 0.082477234
0.17694153 0.106044434 -0.19678028 0.16365558 -0.07530566 -0.019780865 -0.0672243 0.09133142
-0.16444159 -0.14954828 0.06787101 0.092499554 0.035342135 0.08896577 0.090018466 -0.116215974
0.17532656 -0.08903057 0.0047402303 -0.024049325 0.0058229794 0.18973103 -0.25525612 0.02944985
-0.08799061 -0.053821556 0.029281469 0.045236092 0.008048863 0.147434 0.10466067 0.12982354
-0.016577603 -0.0074335714 -0.030447641 -0.014440564 -0.15212215 -0.15870595 0.176505 -0.060741894
0.044141803 -0.0727746 0.1821807 0.01698231 0.013269618 0.029230049 0.12194091 0.02714439
-0.040914018 -0.0077464273 0.18891175 -0.09328931 -0.11609678 0.010270037 -0.0002710788 -0.0068225567
0.082819246 0.013235331 0.08589332 -0.03888821 0.088737264 -0.057637967 -0.06745102 -0.14531739
0.008937301 -0.038129933 0.18336643 -0.06576792 -0.034067698 0.030416125 0.046139956 -0.1280648
0.0074395332 0.0037485245 0.18981059 -0.035204668 -0.06003191 -0.12769488 0.015406723 0.06548464
-0.15735315 -0.031436235 -0.122052565 -0.20840856 -0.037769925 0.13014992 -0.08706065 -0.00094426
0.18406236 -0.09186504 0.13308285 -0.07465372 -0.08868361 -0.025314458 0.03566421 -0.004156454
-0.03180103 0.03238306 -0.095497675 0.07995325 0.0498189 -0.09170601 -0.06794467 -0.018195238
0.06459117 0.15931368 -0.027524414 0.09090868 0.098260455 0.035373546 -0.10226094 0.00061464583
-0.07835446 0.070364766 -0.03614448 0.14857902 0.11203212 -0.120611995 0.021978645 0.10145748
0.055320397 -0.13833606 -0.09051638 0.019676339 -0.12191059 -0.07196993 -0.055537354 -0.0005238007
-0.048600923 0.030663358 -0.033278406 0.007960996 0.023776984 -0.10460055 0.16898657 -0.058367398
-0.118912786 0.06315896 0.042257972 0.06506976 -0.037543274 -0.011796148 0.10472089 0.17073697
0.16557299 -0.013074843 -0.16540064 -0.053797312 -0.0314418 0.061915934 0.026234573 -0.0074270777
0.0916707 -0.08618539 0.014950704 -0.06715117 -0.14909561 -0.15053894 0.048273854 0.09985482

gnn_layers.2.bias f4 [64]
00000000: 6858 aa3a a743 d73d 4144 1bbd f096 d33c
00000010: 7134 963c a18f 73bc cfc9 f2bb 79c5 983c
00000020: 30b3 b9bc fc5f e53c 2cd4 73bc 579c 0abd
00000030: 4a8f 0c3d 63e9 703d 42dd 993d 7e58 3b3c
00000040: 1d38 75bd 415f 813c c07b be3c c3cf 17bd
00000050: 7e7b 123d 3909 fa3c 5256 5b3c 8d87 65bd
00000060: c950 b53d ba2e b3bc f7f1 8dbd 2c55 c7bd
00000070: 9fa6 8ebd 2d58 363d b195 19bd 28a5 86bd
00000080: 96d9 743d 96da 1d3d 402b b13a fc72 b63b
00000090: 4402 d1bc 2359 41bd 0408 04bd e617 1fbc
000000a0: cbdf e63c a67b a5bd b6dd eabc 2160 84bb
000000b0: 2ca3 78bd 10c1 43bd 15a9 143d 14ad 023d
000000c0: fac6 acbb 4cae 7cbd 39b9 a7bd 4bb2 813c
000000d0: e0db 84bd 381d b63c b97d a7bb 6728 a43b
000000e0: 644e 5abd da1d dfbc 64c4 343d 6455 71bd
000000f0: d816 5ebd 5691 63bd 0b22 c1bb 7cf9 7f3c
0.0012996318 0.105109505 -0.03790689 0.025828809 0.018335553 -0.014865787 -0.0074093114 0.01864885
-0.022668451 0.02799987 -0.014882129 -0.033840504 0.03431634 0.058816325 0.07512905 0.011434672
-0.059867967 0.01579249 0.023252368 -0.03706337 0.035762303 0.030521976 0.01338728 -0.056037474
0.08853299 -0.021872867 -0.06930917 -0.09733042 -0.06965374 0.044517685 -0.037496272 -0.0657447
0.05977782 0.038538538 0.0013516918 0.0055679064 -0.025513776 -0.047204148 -0.032234207 -0.009710288
0.028182885 -0.08080225 -0.028670173 -0.00403978 -0.060702488 -0.04779154 0.03629406 0.03190334
-0.0052727433 -0.06168966 -0.08189625 0.015832087 -0.0648725 0.02223073 -0.005111423 0.005009699
-0.053297415 -0.027235914 0.044132605 -0.058919325 -0.054221004 -0.055558525 -0.005893951 0.015623447

gnn_layers.2.lin.weight f4 [64, 64]
00000000: d40f 51bd bbb0 91bd fa14 c8bc 1457 283c
00000010: 0822 8cbd cad4 013d fb95 8d3c ab32 b0bd
00000020: 8ea9 3d3b b90d 01bd f44b e33d eb34 b9bc
00000030: 2c60 463d da73 b2bd 59cc 5ebd 8b51 5ebd
00000040: 0a8e 9c3d efce cbbd 5e8c 96bc 508c 2c3d
00000050: 55cb 23bd 6c85 3e3d 26b5 2b3d 20ab fe3d
00000060: bc22 033d feb0 b53b 663c a1bc 74f8 a53d
00000070: d320 553d 7070 dd3d 6019 0bbd 7f24 2abd
00000080: 7112 f7bd 11a4 463d cd02 c3bd 574b c0bd
00000090: 704d 423d 2c6b 5fbd 87c1 e43c dd97 c4bd
000000a0: a6da bc3d 3dec c5bd c184 5c3d a71a d43b
000000b0: 8a62 013d 0845 d43c 89e6 853d 7da0 473d
000000c0: 5080 7a3d 5a81 a7bb 6647 1ebd ceb1 ccba
000000d0: edec 7a3c 1caa 16bd ff9b cb3d 4838 b3bb
000000e0: 4e36 e73d 664b 23bd fb4e 61ba 4b21 ecbc
000000f0: 1cb3 183d 4a95 a73d 20ec 29bd 3c50 503c
00000100: 0a02 8c3d 3fa3 4cbe 4935 2d3d bc7d 6bbd
00000110: f79e c8bd 15b1 ffbd 1dce 23be 5697 9ebd
00000120: 55c6 2c3d 29ce db3d 8868 143e 876c efbd
00000130: c416 f73d e225 8bbc be84 f0bd 80f7 1b3e
00000140: 260d c43d f341 fcbc b12a 18bd 7c65 393d
00000150: 5721 aebd 68f9 163d 2ff5 d53c 1cb4 453e
00000160: f06e 6abd a00a 0cbd 0946 1bbe 6a3e 2ebd
00000170: b696 493b f14d bdbc 36ca cb3d bbb0 163b
00000180: b271 6bbc 5276 0e3e 6fe5 393d ae5e 003e
00000190: ae76 1d3e 4c1a 13bc 7855 943c ad71 d63c
000001a0: 69c8 19be 938f 1abe 34c5 7a3d e36d f23c
000001b0: 0662 2a3d 4ca2 993d 3053 393d bc3f 823d
000001c0: b71e c53d 89dd aebd 2cf5 023d bb52 f8bb
000001d0: 89d1 8ebc 190c a63d feb4 273d f503 593d
000001e0: 9ecf 6a3d 88db 863d 52a4 1a3e 38bc 3f3e
000001f0: b9b5 283c 582b 3a3e 70c7 803d b601 d83d
00000200: 1bb7 1ebd 66be 313e 1dea 1b3d d6f7 893d
00000210: eb42 14bd 114d 313e 5b0e d83d 3b86 5b3d
00000220: 4edd febd 833c 3cbe ef6c afbd eb12 3d3b
00000230: d985 3ebd d69a c63c e40f b93d eee7 2abc
00000240: 66f4 9fbd 0d0a ae3b 196d e13d 9281 a1bd
00000250: f246 d0bd 7468 a03c a653 82bd c856 81bd
00000260: 641b 9f3d 6d5f 8fbd 6a89 fa3d 2687 313e
00000270: 7ae9 8e3d 600f c3bd d434 96bd 111d 123e
00000280: 1796 b43c 539f debc e5a9 ecbc 637d e7bd
00000290: 32ea b8bd 8a56 af3d 7fb8 27bd 8584 04be
000002a0: 1622 4f3e ff23 293e 6b6f 49bd 75bc 9d3d
000002b0: 7cc0 253e d010 20bd 7c95 81bd 140d 5fbd
000002c0: ea3c afbd ded3 873d bf80 85bd 1918 cc3d
000002d0: d310 343c 6306 21bd aca8 9c3d 5bd8 8cbd
000002e0: f9fa 21be 5ce1 96bd 6e5b 843d eee8 c9bd
000002f0: d27b 873d 5ef3 a63d 191c f2bc 618c 233d
00000300: 330a 80bd 6dce 0b3d fc1f 86bd cde2 18be
00000310: e463 f4bc 4bfe cb3b b580 db3d af6e 4a3b
00000320: 48d6 4dbc 07ee 8dbd f7ab 063d 33ef 09bd
00000330: cbb3 32bd 5ad4 49bd d244 b2bd df89 1a3e
00000340: f72f 2a3d 9e7c f33b 41da a53d 8007 e8bd
00000350: 0430 fcbc 2e86 d4bd 7a54 a9bc 8ab0 92b8
00000360: b407 7e3c 5403 bfbc 58f9 4a3e a054 383d
00000370: 84a3 9d3d 8c4c bbbd 7260 b1bd 8e2e ab3c
00000380: ab4f 383e 968c abbd 4cc1 43bd 02fd 523c
00000390: df7a 443b 02c3 5cbd b66c 203a 597e 5abd
000003a0: 6937 bc3d dd35 cb3d cc1b 5e3d 7433 353c
000003b0: 9608 0b3d e6a5 d3bd 41af e13d e8df 57bc
000003c0: fc75 1a3e 56f1 693d 6019 21bd e223 2cbc
000003d0: 4451 80bd 2714 afbd a4c7 253d 4653 84bd
000003e0: cb62 ec3c 92ab a3bd 30a7 593d 3929 b1bd
000003f0: 9bbc d33d bfd8 323e aaa4 86bb f517 08bd
-0.051040486 -0.07113787 -0.024424065 0.010274667 -0.068424284 0.031697072 0.01728343 -0.08603414
0.0028940174 -0.031507228 0.11098471 -0.022608241 0.04843156 -0.08713503 -0.0543941 -0.054276984
0.07644279 -0.09951579 -0.01837748 0.042126 -0.039988834 0.04651396 0.041920803 0.12434983
0.032015547 0.0055447808 -0.01968212 0.08104029 0.052033257 0.108124614 -0.033959746 -0.04153871
-0.12064064 0.04849631 -0.095220186 -0.0938937 0.04743713 -0.054545566 0.027924312 -0.09599278
0.092213914 -0.096641995 0.05383754 0.006472904 0.031588115 0.025911823 0.06538112 0.048737038
0.061157525 -0.0051118555 -0.03864231 -0.0015616955 0.015315277 -0.036783323 0.09941863 -0.0054693557
0.11289655 -0.039866827 -0.0008594838 -0.02882447 0.037280187 0.081827715 -0.041484952 0.012714442
0.068363264 -0.19984148 0.042287145 -0.057492957 -0.09795945 -0.124849476 -0.15996595 -0.07743709
0.04218133 0.10732681 0.14493 -0.11690622 0.12064889 -0.016985837 -0.117440686 0.15231133
0.0957282 -0.030793166 -0.03715009 0.0452628 -0.08502453 0.036858946 0.02611789 0.19306988
-0.057234704 -0.03418982 -0.15163435 -0.04253999 0.0030759997 -0.023108454 0.09950678 0.0022993523
-0.014370369 0.13912323 0.04538482 0.12536117 0.15377304 -0.008978438 0.01810716 0.026177252
-0.15017857 -0.15093832 0.061223224 0.029593414 0.04159739 0.07501659 0.04524535 0.063598126
0.09624999 -0.08538348 0.031972095 -0.0075782216 -0.017433899 0.08107776 0.040944092 0.05298229
0.057326905 0.06584841 0.15101746 0.18724144 0.010297232 0.18180597 0.0628804 0.10547201
-0.03874884 0.17357787 0.038065065 0.06736724 -0.03619663 0.17314555 0.10549613 0.05359481
-0.12444554 -0.18382458 -0.08565699 0.0028850387 -0.046514366 0.024243753 0.09036234 -0.010431273
-0.07810287 0.0053112567 0.11007137 -0.07886042 -0.10169782 0.019581057 -0.06363611 -0.0631538
0.07768896 -0.07000623 0.12233241 0.17336711 0.06978126 -0.09524417 -0.07334295 0.142689
0.022044225 -0.027175581 -0.028889606 -0.113032125 -0.09029044 0.08561428 -0.040947434 -0.12941177
0.20227847 0.16517638 -0.049178522 0.07701961 0.16186708 -0.039078534 -0.0632734 -0.05445583
-0.0855654 0.06632207 -0.06518697 0.09965534 0.010990339 -0.03931273 0.07649359 -0.06877204
-0.15818395 -0.07367203 0.06462751 -0.09858881 0.06615414 0.08151887 -0.029554414 0.039928798
-0.06251945 0.03413241 -0.06549069 -0.14930268 -0.029832788 0.0062253824 0.10717908 0.0030888726
-0.012563296 -0.06930166 0.032878842 -0.033675384 -0.043628495 -0.04927478 -0.08704533 0.15091656
0.04154965 0.007430627 0.08098269 -0.113295555 -0.030784614 -0.10377155 -0.020670164 -6.9947055e-05
0.015504766 -0.023317017 0.1982168 0.04500258 0.07697204 -0.091454595 -0.086609736 0.020896222
0.17999141 -0.08376424 -0.047791764 0.012877705 0.0029980463 -0.05389691 0.0006119715 -0.05334315
0.09190256 0.09922383 0.054225728 0.011059631 0.033943735 -0.10334377 0.11019755 -0.013175942
0.1508407 0.05711492 -0.03933084 -0.010506602 -0.062655 -0.08548766 0.040473595 -0.06461196
0.028855702 -0.07991709 0.053137958 -0.08650441 0.10338708 0.17465495 -0.004108985 -0.033225972

mlp.lins.0.weight f4 [7, 1625]
00000000: 3e5b c1ba 313b bdbd 4950 8a3d 9b1e 8bbd
00000010: 1fa1 a3bd e282 45bd ef1b 0f3e aaf1 31b6
00000020: d2b5 8237 35e3 e5b6 2ca9 7a35 9aa9 9536
00000030: d1f2 983d 54bf 3cbd 404b bcb6 08ba 563d
00000040: fec1 3eb7 fd73 0fbc e77e 26b7 5133 3ebe
00000050: 78ba 5737 43d3 2f36 b505 b9b6 29be a4bd
00000060: 2bca 6cb6 7b78 cb3d 5d99 e2bc 908b ffbc
00000070: 0284 94bd 2d8e 9bb6 4536 78b9 9e31 b4b5
00000080: e440 b0b6 917d 8737 0ae0 bc36 8c75 e9bd
00000090: 4225 d736 8db7 0033 c142 cfbd 1101 17be
000000a0: 9774 ceb9 a9b4 2b3c d842 71b6 e21b b2b5
000000b0: a216 debd b612 9dbc 5a60 86b7 5b70 813d
000000c0: 821c 1dbe 05bc 92b6 eae5 eab9 ef8e a5bd
000000d0: 96c5 abbc 14b2 edb4 f8dd 97bd f168 00b7
000000e0: 5a60 783d 99e9 15bd aa59 37bd 2697 07be
000000f0: 8b7c e736 f5cb 48be 7821 1a3e 1d99 d9ba
00000100: 80cd b33c 35d9 5abb 8afe fab6 2d15 12be
00000110: 3a66 2837 a096 1137 bf91 a4bd ae84 01b7
00000120: 7c15 04bc 0b16 c836 0253 4837 dadc cc36
00000130: 15ab eab9 bb7c 92bd d225 9dbb 3f62 5537
00000140: c793 f3bc e222 99bd eef0 11bd 4698 b039
00000150: 271d 32b6 f3bb f6bb 86bd d1bd d2f9 66b7
00000160: 3768 18be 1f5b 0b3a 9312 37b7 88aa cab8
00000170: 627c 41bd 8a91 273e 3db0 13bb 6a9f 3e36
00000180: a699 c3b6 a508 b9bd 237a 863d 3730 bf3d
00000190: 804a 1abb 3769 06b7 e872 02be e03d 84bd
000001a0: 95b8 44be 735e 4037 fc72 27bd 9f87 20bd
000001b0: 5a0e 9fbc dbee d5bd 9b69 5037 fe8c 7c37
000001c0: 867c 27b5 6e76 3eb6 b3a0 1537 58c2 26b6
000001d0: f545 b1bc c61d 43b7 fb36 c8bd 5c30 8bbc
000001e0: 6459 8bbc fbf5 e23d 6e63 063e eadc 81ba
000001f0: 0c7a c5bd a994 70be ad02 1c3c afec 2135
00000200: a40c 86be fd04 ce38 6d9f 1f3d 2afc 07bd
00000210: dc5c 233e 7aa1 6539 2dbb 9136 d976 4abe
00000220: 3591 cf3d a709 5336 c0a6 b736 0e9d 5bbd
00000230: 69df a2bc 8d7e 8eb6 dba5 29b4 f3f1 59bd
00000240: 43e3 9136 1d62 67b7 2bdb 9a3d a704 bc36
00000250: 5945 ecb6 f078 d0bd cc00 84bb 3bcb 50bd
00000260: 7549 c2b4 f83d 6abc 7353 52bc a693 05be
00000270: f3e6 33b2 9e89 1ebd 36e2 a1bb ea43 a4bb
00000280: 9cad 96bd e2fb b6b6 c8ed 34be e61f 05b6
00000290: 1c63 e736 f4f0 3d37 6ea2 5536 ba9a d838
000002a0: 18e4 ffbd 6e3b 4fb7 c653 ce36 07f9 7bb7
000002b0: fbbb 87bc 1111 f8bd c7e1 0dbc cfc6 4db6
000002c0: ecc3 22bd 204f 2936 e535 4137 973b 5c3e
000002d0: a988 af36 b1d9 c2bb df74 9b36 5a92 5cba
000002e0: e516 d135 9dc5 23b7 4536 f7b9 02ce 13be
000002f0: 5828 0ebc 4721 95b6 b967 4dbb 103d 2d39
00000300: 323d e9bd 307b a036 dc07 c7bc e135 08bd
00000310: fd20 f7bd e2e1 c9b6 5000 b4b6 f231 5cb6
00000320: 7264 82b9 de21 20b7 32e8 4537 969c a1bd
00000330: ce5e 4e35 30c3 243d a7d8 dc36 18e3 54bd
00000340: 3afb 93bd 6ed5 54b4 d40b 3bb6 468b 8abb
00000350: b252 0dbe 43aa 9ebc 6bf1 0a3e 04f9 44b6
00000360: ae46 cbb6 1d3c 93bd f500 5bb7 5aea 26b7
00000370: 0edf 3037 330a 5b37 88aa 193e 4dee 9f35
00000380: 2a8e 4d38 4a13 613d 44fe 01be 94d5 67b7
00000390: 57b4 1e3e 165b 09b7 ffc8 0836 3f81 52b6
000003a0: 9791 77bc ad92 b23d c9f5 913d 9c77 2a37
000003b0: 25e3 acb6 7762 5a3e ab7a 7abd 6f88 30b7
000003c0: 3da2 1ebc e6ff bcb6 b1f3 0fb8 1733 51b6
000003d0: 51e1 1236 8f1e 2336 3568 ff35 f030 13bd
000003e0: 96de 32b7 475b 3cbd 5a8a f63d 0962 45b6
000003f0: 2c86 c6b6 edc5 d0b5 f5c5 d736 7ba0 d936
-0.0014751924 -0.092398055 0.067535944 -0.06792947 -0.07989716 -0.048220523 0.139755 -2.6515722e-06
1.5581874e-05 -6.851182e-06 9.3378435e-07 4.4602903e-06 0.074681886 -0.046080902 -5.611597e-06 0.052423507
-1.137005e-05 -0.008755681 -9.923918e-06 -0.18574263 1.2858414e-05 2.6200003e-06 -5.514094e-06 -0.08044083
-3.5284418e-06 0.09935089 -0.02766102 -0.031194478 -0.07251741 -4.6359114e-06 -0.0002367134 -1.3425486e-06
-5.252763e-06 1.6151726e-05 5.628918e-06 -0.113993734 6.4118367e-06 2.996926e-08 -0.10120154 -0.147465
-0.00039378248 0.010480084 -3.5950707e-06 -1.3270148e-06 -0.108441606 -0.019173961 -1.6018912e-05 0.06320258
-0.15342906 -4.3730274e-06 -0.00044803257 -0.08083903 -0.02096824 -4.427426e-07 -0.07415384 -7.653828e-06
0.060638763 -0.03659973 -0.044763245 -0.13241252 6.898835e-06 -0.19609053 0.1505183 -0.0016601417
0.021948576 -0.0033393626 -7.480213e-06 -0.1426589 1.0037382e-05 8.677744e-06 -0.08035611 -7.719891e-06
-0.008061763 5.9630306e-06 1.1940256e-05 6.1053843e-06 -0.00044759424 -0.07152697 -0.0047957683 1.2718664e-05
-0.029733552 -0.074773565 -0.03563016 0.00033682788 -2.6541036e-06 -0.0075297295 -0.10241227 -1.3767234e-05
-0.14883505 0.00053160073 -1.0911975e-05 -9.6638745e-05 -0.04723776 0.16364112 -0.0022535466 2.8404997e-06
-5.82934e-06 -0.09034852 0.065662645 0.09335368 -0.002354294 -8.01152e-06 -0.12739146 -0.06457114
-0.19211037 1.14660825e-05 -0.040881142 -0.03919184 -0.019416023 -0.10445949 1.2422354e-05 1.5053198e-05
-6.2393553e-07 -2.8381141e-06 8.918508e-06 -2.484905e-06 -0.021639803 -1.1629838e-05 -0.09776112 -0.016990833
-0.017010398 0.11082073 0.13123867 -0.0009907756 -0.09642419 -0.2349421 0.009522122 6.0321594e-07
-0.2618152 9.8237746e-05 0.0389704 -0.033199467 0.15953392 0.00021899297 4.343127e-06 -0.197719
0.10135118 3.1447069e-06 5.4732373e-06 -0.053616576 -0.01988192 -4.2466622e-06 -1.579969e-07 -0.053209256
4.3477935e-06 -1.3791517e-05 0.07561334 5.603378e-06 -7.041421e-06 -0.10179317 -0.0040284153 -0.050975066
-3.6188763e-07 -0.014297001 -0.012837279 -0.13044605 -1.0471683e-08 -0.03870546 -0.0049402965 -0.005012979
-0.07357332 -5.4533457e-06 -0.17668831 -1.9837112e-06 6.8958743e-06 1.1321379e-05 3.183402e-06 0.00010328503
-0.12494677 -1.23519985e-05 6.149031e-06 -1.5018747e-05 -0.016569128 -0.1211263 -0.008659787 -3.0663102e-06
-0.039737627 2.522902e-06 1.1516245e-05 0.21507107 5.2313158e-06 -0.005946361 4.6329656e-06 -0.0008414142
1.5578377e-06 -9.7615675e-06 -0.00047151945 -0.14434054 -0.008676611 -4.44442e-06 -0.003134234 0.00016521313
-0.11388625 4.7827125e-06 -0.02429574 -0.033254508 -0.12066839 -6.016563e-06 -5.3644544e-06 -3.2811627e-06
-0.0002487037 -9.5446285e-06 1.1796177e-05 -0.078911945 7.687894e-07 0.040225208 6.5817326e-06 -0.051974386
-0.07225652 -1.9821684e-07 -2.7872056e-06 -0.0042280285 -0.13801077 -0.019368296 0.13568656 -2.9351222e-06
-6.0580996e-06 -0.071892 -1.305364e-05 -9.948935e-06 1.0542351e-05 1.3055792e-05 0.15006459 1.1915778e-06
4.900821e-05 0.054950036 -0.12694651 -1.38184005e-05 0.15498482 -8.187044e-06 2.0382574e-06 -3.136767e-06
-0.015110395 0.087193824 0.07126958 1.0160638e-05 -5.1524426e-06 0.21326624 -0.06115214 -1.0522183e-05
-0.009682235 -5.632627e-06 -3.4320812e-05 -3.1173165e-06 2.1886847e-06 2.430668e-06 1.9029309e-06 -0.035935342
-1.0661452e-05 -0.045985486 0.12038107 -2.9412352e-06 -5.9164795e-06 -1.5554812e-06 6.4305445e-06 6.4857863e-06

mlp.lins.0.bias f4 [7]
00000000: 5561 89ba 8ae1 44bd c170 88bc 96fb 383d
00000010: f322 043d c80e 8bbc 9740 73bd
-0.0010481278 -0.048066653 -0.016655328 0.045161806 0.032259893 -0.016974822 -0.05938777
